…
ation layers &#39;&#39;&#39; return nn.Sequential(torch.quantization.QuantStub(), self, torch.quantization.DeQuantStub()) . Training without PyTorch Model Quantization . Helper functions for Pytorch Quantizantion and evaluation . Chain everything together in a single train function . Experiments . Let&#39;s simulate that it is our first time facing this problem, so we haven&#39;t thought about normalizing the weights. . model_15, _ = train_model_and_quantize(epochs=15, norm_w=False) . - Layer (type) Output Shape Param # ================================================================ Conv2d-1 [-1, 32, 26, 26] 320 BatchNorm2d-2 [-1, 32, 26, 26] 64 ReLU-3 [-1, 32, 26, 26] 0 MaxPool2d-4 [-1, 32, 13, 13] 0 Conv2d-5 [-1, 64, 11, 11] 18,496 BatchNorm2d-6 [-1, 64, 11, 11] 128 ReLU-7 [-1, 64, 11, 11] 0 MaxPool2d-8 [-1, 64, 5, 5] 0 Flatten-9 [-1, 1600] 0 Dropout-10 [-1, 1600] 0 Linear-11 [-1, 10] 16,010 ================================================================ Total params: 35,018 Trainable params: 35,018 Non-trainable params: 0 - Input size (MB): 0.00 Forward/backward pass size (MB): 0.75 Params size (MB): 0.13 Estimated Total Size (MB): 0.89 - Epoch 1 Time: 2.53 s - Loss: 0.2702 - Categorical_Accuracy: 0.9447 - Val_Loss: 0.0466 - Categorical_Val_Accuracy: 0.9848 Epoch 2 Time: 2.21 s - L
…
